models/model.pth (torch, 24979 bytes, 4 tensors)

linear1.weight f4 [128, 40]
00000000: 098f fdbd 857a 0a3e 40cc 0c3d 93ed 983d
00000010: 2ae1 ca3c 310b 0b3d 38cd 933d 9a4a 35bd
00000020: ef4f ab3a 8be4 0dbe ad05 84bd 7a74 d5bd
00000030: df90 20be 06de e5bd 3784 ae3c 31fa 933d
00000040: c5d9 00be 7a8e a83c d502 8fbd fd16 d93d
00000050: 09bf e1bc 4304 543c c98f 02be 2563 2a3d
00000060: fa6c c5bb 46ac 983c e070 11bd 6d92 0a3e
00000070: 723b 3cbd 26e7 e0bd fd1b bbbd 4121 99bd
00000080: 8d9b e93d 97cf 133d 1a3c f8bc 2bf0 093e
00000090: 00cb 04bd 9a2f f13d 2e3d d1bd 40dd 00bc
000000a0: 2080 273e d9c6 31bc 8d7a 093e b10b e63d
000000b0: 35be 19be e2ea e3bc fafe 85bd 1a29 59bd
000000c0: c64f c6bd 6356 993d 5ae5 85bc 2ecb ce3c
000000d0: ec5e 97bd 5d8d 0ebd 51bf c03d 3bf6 90bd
000000e0: 27ac d0bd 4178 3b3b 7b22 03be bea9 f93c
000000f0: ed47 953d 7f2c 81bd 39c8 063d a142 15be
00000100: 9c26 5f3c 3d94 713d 4cd1 073e 2cca 053e
00000110: 9a29 823c 3aae 04be daa2 96bd 7b72 8f3d
00000120: 8631 713d 582c 85bd ea16 f23d dc21 833c
00000130: b440 05be 04d3 03bd 686d 813c ac20 42bd
00000140: 4e02 0dbe 1b77 13be 6334 e6bd a18c f6bd
00000150: 1172 b83c 6a8c 32be 8489 8237 d900 cc3d
00000160: a27a bcbd 78a5 eebd 4772 3abd 8258 8d3d
00000170: e82c 053e 7af7 a0bd 2bb1 b33d 8cce 083e
00000180: e1de c53d 381a 053e 4a66 ef3c 0732 8ebd
00000190: 390c eb3d 60c4 c13c 633f c3bd e109 8cbd
000001a0: f9fb 55bd de4e a3bd 1c73 2b3c 75ff ad3d
000001b0: 63e3 cdbd a767 a43c 807e b8bb 1a9d 2c3b
000001c0: 77c6 3e3d 0d38 26bd d8ee b73c 15b9 a03d
000001d0: 50b0 0b3d 9882 0cbd 4ade 65bd 30d6 abbd
000001e0: cf53 d3bc 3683 a33d 32a5 19bd 37c5 103e
000001f0: 8cca a73d f396 edbd 2873 4fbd 17f2 303d
00000200: 7046 ee3d 8d82 c2bd f2a8 913d b42d 043e
00000210: 9d36 ffbd bc0a b33d 7e28 0c3d debe af3d
00000220: 9a0b 953d e937 103e d533 853d 9dce ccbd
00000230: c0a5 00bd c0b3 28be 8163 07be 05ec 2a3d
00000240: 432b 56bd 23c3 2b3d 47fe f43c 0a12 c53d
00000250: d1cb db3d 5b63 2a3d 2657 f23d a555 d3bd
00000260: f1db 803d 0690 233e a1af 0b3a 4262 cc3d
00000270: 20ed 9dbd d5df 043e 1476 953d f463 403d
00000280: 882d 2bbe 283a e1bd afe3 14be 3742 953b
00000290: 0567 e43d da08 d63d 7dff aabd abf2 1c3e
000002a0: ed0a d0bd 17fe 293d 0d94 93bc c03c c9bd
000002b0: 3485 f63c c9a9 e6bd c41d d13d 76c4 10be
000002c0: 2b18 aa3d 096d d4bd e309 50bd 638e f6bd
000002d0: 3052 c0bd 8c2f 7bb9 5b8a 02be 6314 38bd
000002e0: 6bbd 603d 426b 843d 6482 67bb b878 a93d
000002f0: b9f3 423b fce3 d53c abe8 81bd d8be 053e
00000300: 60d3 cd3d 2bb6 8f3d c087 c43c 9581 2e3d
00000310: 935e d5bd 6055 693d 2031 0a3c 3893 b83d
00000320: 8e5e 5f3d 9d61 0cbe c0fe f8bc cd99 f33c
00000330: 724d 223e 3939 7c3c 672d 0b3e 52a2 37ba
00000340: 6f64 053e d3e5 0abd bcbe 95bd a8df 12bd
00000350: 1667 0ebe 7d2e 223e bea8 a33d e4f1 303e
00000360: 4ba8 f53d b317 d43d d2e1 2ebb 297e 323e
00000370: f7aa 86bd c9f3 b2bd f855 0c3e 7f4f 48bd
00000380: 4f75 d9bc a6fe 00be 301b a8bd 2b77 523c
00000390: d007 703d 226d 8d3d 2cc2 25bd 6856 0f3e
000003a0: 6fea f53d 2d37 17be 3c02 893d c109 02be
000003b0: e401 b73d 494a 033e 9871 9d3c 27f3 b0bd
000003c0: a060 2dbd 7132 91bd a03f b73d fe54 083e
000003d0: 38dc 2cbe a239 a9bd 728a 8d3d 0e1c c6bd
000003e0: e529 cbbd a05f a6bd 26b1 28bc 35d3 143e
000003f0: dcc1 2cbd b45f d83d c1ad 613d c24f 7abd
-0.123807974 0.135233 0.034374475 0.07467189 0.02476557 0.03394622 0.07216877 -0.0442606
0.0013070087 -0.13856713 -0.06446395 -0.10422607 -0.15680264 -0.11223988 0.02130328 0.072254546
-0.12583072 0.02057575 -0.06982962 0.10600088 -0.027556913 0.012940469 -0.12750162 0.041598458
-0.006024954 0.018636834 -0.035508037 0.1353242 -0.04595513 -0.10981588 -0.09136198 -0.07477046
0.11406622 0.036086645 -0.030302096 0.13470523 -0.03242016 0.117766574 -0.10216747 -0.00786525
0.1635747 -0.010850632 0.13425656 0.11232699 -0.15013964 -0.027821962 -0.065427735 -0.053017713
-0.09683184 0.0748718 -0.016344715 0.025243368 -0.07391152 -0.034802783 0.09411491 -0.07078215
-0.101890855 0.0028605612 -0.12806122 0.030476447 0.072891094 -0.06307315 0.03290579 -0.14576198
0.013620045 0.05897926 0.13263434 0.13065404 0.015888978 -0.12957087 -0.0735528 0.07004257
0.05888512 -0.065025985 0.11820777 0.016007356 -0.13012964 -0.032183662 0.01579924 -0.04739444
-0.1377041 -0.14400904 -0.11240461 -0.120385416 0.022515329 -0.17436376 1.5561243e-05 0.09961099
-0.09203078 -0.116526544 -0.04551914 0.06901647 0.13005412 -0.078597024 0.087740265 0.13360041
0.096616514 0.12998283 0.02922358 -0.06943136 0.11476941 0.02365321 -0.095335744 -0.06837822
-0.052242253 -0.07974027 0.010464456 0.0849599 -0.10053136 0.020068957 -0.0056303144 0.0026338757
0.04657599 -0.040580798 0.022452757 0.078478016 0.03410369 -0.03430423 -0.056120194 -0.083904624
-0.025796799 0.07984011 -0.03751106 0.14137731 0.081929296 -0.11601057 -0.05064693 0.043199625
0.11634529 -0.09497557 0.07112302 0.1290806 -0.124615885 0.08742282 0.034218304 0.08581327
0.072776034 0.14083828 0.06504027 -0.10000346 -0.03140807 -0.16474819 -0.13221551 0.041728992
-0.05228735 0.041934144 0.029906405 0.09622581 0.10732234 0.04159866 0.118330285 -0.1031907
0.062919505 0.1597291 0.00053286 0.09979679 -0.07711244 0.1297601 0.07297912 0.046970323
-0.16716588 -0.109974205 -0.1453998 0.0045550126 0.11152462 0.10450907 -0.08349512 0.15326945
-0.10158334 0.041502085 -0.018014932 -0.0982604 0.030092813 -0.11262853 0.102107555 -0.14137444
0.08305391 -0.10372359 -0.05079068 -0.12038877 -0.09390676 -0.00023954938 -0.12748091 -0.044941317
0.054868143 0.0646577 -0.0035325522 0.082749784 0.002974732 0.026109688 -0.06343206 0.13061082
0.10050082 0.07017168 0.023990512 0.042604048 -0.10418429 0.056966186 0.008434564 0.09012455
0.054533534 -0.13709112 -0.030394912 0.029736424 0.15849856 0.015394502 0.13591538 -0.00070050836
0.13026594 -0.033910584 -0.0731177 -0.035857826 -0.13906512 0.15838046 0.079911694 0.17279774
0.1199499 0.10356083 -0.0026684892 0.17430939 -0.06575578 -0.087379046 0.1370467 -0.04890394
-0.026545195 -0.1259714 -0.082083106 0.012845795 0.0586012 0.06905581 -0.04046838 0.13997805
0.12007605 -0.14767142 0.06689879 -0.12699033 0.089359075 0.12821306 0.019219205 -0.08640128
-0.042328477 -0.07089699 0.089476824 0.13313672 -0.16880882 -0.08262946 0.06911172 -0.0967332
-0.099201 -0.08123708 -0.010296142 0.14533694 -0.042177066 0.10565129 0.055097345 -0.06111122

linear1.bias f4 [128]
00000000: b0e3 5bbd a2d4 d73d ea7c edbd a647 15bd
00000010: 9c35 073d 59c5 c1bc 6302 c63c fadc d43d
00000020: 163c dd3d ef73 e1bd 6666 11be 5c1f b83d
00000030: e754 bfbd c525 e2bd 87e9 fe3d ed76 5c3c
00000040: 43d8 76bc 8d53 02bd ca33 fabc f0e2 dd3d
00000050: f91c 09bb e2f2 3fbe d9af cbbd 0256 69bd
00000060: 1497 1bbd 3c01 af3d 91d7 053e 07d3 b73d
00000070: 357a d3bd a8c9 01bd e3d5 683d af52 d43d
00000080: 5f10 253c d131 dabd a88e babd 3056 013e
00000090: e519 0ebd 4e19 2cbe 5e74 1cbd e4fb acbc
000000a0: db73 f5bd a1aa d83d 8d49 143e ce57 c93d
000000b0: 950e 113d 2225 9c3d 70c9 15be 21a0 0b3e
000000c0: d585 bcbd 77aa 9bbc 6af1 44bc 4939 91bd
000000d0: 51b8 d8bd ea5d 9d3d 63f4 e33d 84c0 0c3e
000000e0: cf62 96bd 5087 c63d 066f 72bd d974 64bd
000000f0: 746b e9bc 02c6 633d fdd4 b73c 0462 7cbd
00000100: d900 8bbd b29c b2bd aca5 073e de7a cabc
00000110: 2249 b9bd e708 ddbd c2a7 77bd fe6d 29be
00000120: cbbf a0bd eded eebc fbfc 613d ef54 0dbd
00000130: 30e0 093e 800f 083e 7ed5 56bc d246 9c3d
00000140: 6107 a9bb 433e 9ebd 4c45 3dbe f8a9 f0bd
00000150: e77e 20be 98e5 8dbc 89be 313d 6817 fdbd
00000160: 212c 32be d113 d2bd e9d6 cbbd 8f05 fbbc
00000170: 557c 8bbd cd51 d73d dd73 053e 7e3a ed3d
00000180: da81 e63d 65d7 f3bd f6ca 1b3d 9e97 303b
00000190: 215d e83d 14e7 5c3b c976 0e3e c499 2ebc
000001a0: e821 863d c6d2 013e 8cf5 b3ba 4985 fdbd
000001b0: 80f9 c9bb 79c5 60bc d665 da3c 99e3 16bd
000001c0: b659 bdbd b663 1fbe d9ed 163e c8ed 003e
000001d0: cad0 7abd c5b6 2e3d 2f39 13be 95c8 ed3d
000001e0: f8ac cabd 685f dd3d c05b f33d db79 8a3d
000001f0: 3089 063e 17c0 d2bd db02 c93d dc58 00be
-0.053683937 0.10538603 -0.11596091 -0.036445282 0.03301011 -0.023653673 0.02417106 0.103937104
0.10802476 -0.11008441 -0.14199218 0.08990356 -0.09342366 -0.1104236 0.124468856 0.0134560885
-0.015066209 -0.03181796 -0.030542273 0.108343005 -0.002092181 -0.18744996 -0.0994565 -0.05696679
-0.037985876 0.08545157 0.13070513 0.08975797 -0.103260435 -0.031686455 0.056844603 0.10367333
0.010074704 -0.10654033 -0.09109241 0.12630534 -0.034692664 -0.16806528 -0.038196914 -0.021116205
-0.11984988 0.1057942 0.14481182 0.098312005 0.035414297 0.0762427 -0.14627624 0.13635303
-0.09205214 -0.019002182 -0.012020448 -0.070910044 -0.105820306 0.07683928 0.111305974 0.13745314
-0.07343065 0.096937776 -0.05918791 -0.055775497 -0.02849362 0.055608757 0.022440428 -0.061616912
-0.06787271 -0.087212935 0.13246793 -0.02471679 -0.09047152 -0.107927136 -0.06046272 -0.16545865
-0.078490816 -0.029166186 0.0551729 -0.034504827 0.13464427 0.13287163 -0.013112424 0.076306954
-0.0051583503 -0.07726719 -0.18483466 -0.11751169 -0.1567341 -0.017321393 0.0433946 -0.1235798
-0.17399646 -0.10257686 -0.099531 -0.030642299 -0.06810824 0.10513649 0.1303248 0.11583422
0.11255236 -0.119063176 0.038035356 0.002694584 0.11345888 0.003370707 0.139125 -0.010656778
0.06549436 0.1267806 -0.0013729795 -0.12378938 -0.006163776 -0.013718956 0.026659887 -0.036838148
-0.09245627 -0.1556538 0.14739169 0.12590706 -0.061234273 0.04265477 -0.14377283 0.116105236
-0.098962724 0.10809213 0.11882734 0.06761523 0.1313827 -0.102905445 0.09814998 -0.12533897

linear2.weight f4 [5, 128]
00000000: d101 8cbc 4369 5a3d 9ce2 76bc a3b2 013c
00000010: f29d 18bc 3c54 3c3d 64b8 813c 606b 963d
00000020: 0f5f 533d ed2a 33bc 9e63 6ebd c7e3 343d
00000030: 972d d53c 225b 44bd ba77 f8bc e706 0e3d
00000040: 2453 b43d 54f3 74bd 8919 b23d d8e4 983c
00000050: 53ec 4e3c 537a 33bd ffc3 a9bd 947b 1bbd
00000060: d275 90bc 2566 913c dfea 87bd 431c e73b
00000070: 7e78 ed3c c904 0fbb a369 74bd cc39 a73d
00000080: b111 5c3c 50dc a73d 59b5 553c cf4a b13d
00000090: 9c04 1b3d 1ee0 97bd 5829 433d db7a c03d
000000a0: 0e16 8e3b 6802 87bc cac8 cebc 9ffb 0d3d
000000b0: a565 8a3d b224 2fbd 63f4 623d 34c0 a43d
000000c0: 804c a3bc 92cc 9bbd fbdb 393d 4c36 b13d
000000d0: e7da 9c3d ebed d83d ffa9 a8bc d41d 84bd
000000e0: 0bea bd3c fb99 493d 11b9 4f3c 8e97 5c3d
000000f0: 07ce 1c3d 4324 96bd 6e4f cbbc 9cce 1d3d
00000100: 3bdb 4c3d 515f 58bd c16d fb3c 19a8 d8bc
00000110: 5a4f 583d 7115 eabc 0609 23bd 1228 92bd
00000120: 938e 76bd f419 3ebd 5013 463d ea38 923d
00000130: 7b51 69bd 98b0 48bd 3ed7 cc3d a64b db3b
00000140: 1586 923b f18a 993d 7f65 a53b 8a78 f73c
00000150: c492 cebc f29a 093d 5e70 b63c f4e6 aabb
00000160: b144 7abd a041 6bbc 753c 28bd d56f 55bd
00000170: e8ad 813d 9fe7 9c3d 6a8a 3c3a f0a5 9ebd
00000180: 5986 2bbc 311a 8c3d e696 bd3c 8b8d 113b
00000190: 7ad1 dbbc e261 eb3c 4c31 ab3c 8452 cf3c
000001a0: 8231 303d 5e54 83bd b37a bbbc 0c3a 86bc
000001b0: b8d2 483d 3526 8bbd bf05 a73c fdb7 72bd
000001c0: 77ac 393d df6c 043c ea52 b5bd 49cd fbbc
000001d0: b902 84bd cd71 fa3b 66be 693d c50b 403c
000001e0: 5754 743d 9a40 d43d 9a09 1e3d 2ff5 5e3d
000001f0: f81e 4abb c863 7c3d bc6e 0cbd 7bb7 883b
00000200: 6427 993c 5af8 e8bc e76e dc3b f204 e73a
00000210: 4763 463d dfa6 a33d e64c 42bd 5c66 d4bc
00000220: 2e4b 80ba bf6c a63c 8411 7abc ff80 39bc
00000230: 210f 39bb 8cf8 34bd a16e 0abd b60f 02bb
00000240: 506d b93d d005 053c 1a68 b03d 109f b03c
00000250: 7e9b 883d d030 94bd ba39 8ebd c94c d4bc
00000260: 5d9b 98bd fd87 8b3d 287b f5bb 4efd 813b
00000270: 9f8a 3d3d f16f 00bd 7c07 c03d 3043 7fbd
00000280: 15e6 d3bc a4d5 1e3c bc1f aa3d 8da6 963d
00000290: 4fbe 32bd 1f61 9abd 879e a43d 1a1a 54bd
000002a0: 4b70 623d 2441 d83b 6686 a0bc ca39 053d
000002b0: 1b38 27bd b931 063c 65df 21bd 467d 003d
000002c0: 943d 9c3d 3ea1 6c3c bb67 12bd 2f29 79bd
000002d0: f016 cb3b 12ac 853d 6f28 c03c 4424 81b9
000002e0: 2478 293d 5c6f cdbc 9fb9 673c 98e8 903d
000002f0: 06f1 3b3a 4f3f cc3d d4c2 9b3d 7701 c03d
00000300: 2208 093d 9634 aebc cdf6 083d 8e43 8c3d
00000310: bb75 e1bc a5d3 90bd 9e3b 453b ee0b 17bd
00000320: e243 5bbd 79d7 7bbd b719 bb3d a7e8 933d
00000330: 7280 5bbd eec3 423d 278b 843d 6a02 f23c
00000340: 7f1c ba3d 96fd 67bd cc27 a739 ecfc 153d
00000350: 58ef 413a 7c2b e33c 7c2a 14bb 3718 5ebc
00000360: 0935 033d 7941 e539 6358 51bd 7932 bc3d
00000370: 9353 a93d 2c24 583d 408a 3bbd 7d1d 7e3c
00000380: a995 99bd de1b 8c3d 9711 5bbd f4c2 a3bb
00000390: 6856 573d 091e 73bd 62c0 13bc 5fb7 3e3d
000003a0: bdf5 eabb 31a3 983d 75de b93b 18ea 303c
000003b0: 3667 b7bc da7f 333d 0afb 34bd 4868 60bc
000003c0: 03e2 a5bc c5fe a4ba 64e9 98ba c0ef 5a3d
000003d0: 71f5 353d 0015 933d 0395 213d 1282 f6bc
000003e0: ae7b e8bc 3917 93bb 12d6 27bd b63c ab3d
000003f0: ead0 a53d d318 503d 8839 20bd 4b09 8cbd
-0.01709071 0.05332304 -0.015068676 0.0079161255 -0.009315001 0.04597877 0.015834995 0.07344699
0.051604327 -0.010935527 -0.05820047 0.044162538 0.026022715 -0.047938474 -0.030330528 0.03467455
0.0880492 -0.05980237 0.08696277 0.018663809 0.012629586 -0.04381783 -0.082893364 -0.03795965
-0.017634306 0.017748902 -0.06636595 0.0070529296 0.02898812 -0.002182292 -0.059671056 0.08165321
0.013431952 0.08196318 0.013043725 0.08656847 0.037846193 -0.07415794 0.04764685 0.09398433
0.004336125 -0.01648064 -0.025242228 0.034663793 0.067576684 -0.042759605 0.055408847 0.08044472
-0.019933939 -0.07607378 0.045375805 0.086529344 0.0765894 0.10592254 -0.020588873 -0.06451002
0.02318289 0.049219113 0.012678401 0.05385547 0.03828242 -0.07331135 -0.024818148 0.038527116
0.050013762 -0.052825276 0.030691983 -0.026447343 0.05281005 -0.028574677 -0.039803527 -0.07136549
-0.060194563 -0.04641147 0.04835826 0.07139762 -0.05696247 -0.048996538 0.10001992 0.0066923676
0.00447155 0.07497204 0.0050474997 0.030208845 -0.025216468 0.033595033 0.022270378 -0.00521552
-0.061100665 -0.014358908 -0.04107328 -0.052108604 0.06331998 0.07661366 0.0007192256 -0.07746494
-0.010469043 0.06840933 0.023143243 0.002220961 -0.026833285 0.028733198 0.02089753 0.025307901
0.043015964 -0.06412576 -0.022885656 -0.0163851 0.049029082 -0.06794397 0.020388482 -0.059257496
0.04533049 0.0080825975 -0.08853705 -0.030737536 -0.06445832 0.0076429606 0.057066344 0.011721556
0.059650745 0.10363884 0.038583376 0.054433044 -0.0030841213 0.061618596 -0.034285292 0.004172263
0.01869554 -0.028438736 0.006727088 0.0017625375 0.048434522 0.079908125 -0.047436617 -0.025927715
-0.000978803 0.020315526 -0.015262965 -0.011322259 -0.0028237777 -0.044182345 -0.03379691 -0.001984579
0.09054053 0.008119062 0.08613606 0.021560222 0.06670283 -0.07235873 -0.06944604 -0.02591552
-0.07451508 0.06813047 -0.007491488 0.003966964 0.046274778 -0.031356756 0.093764275 -0.062319934
-0.025866548 0.009694491 0.08306834 0.07355986 -0.043638524 -0.07538056 0.08038049 -0.051782705
0.055282872 0.0065995622 -0.019595336 0.032525815 -0.04082499 0.008190566 -0.039519686 0.03136947
0.076289326 0.01444274 -0.035743456 -0.06083029 0.0061978027 0.065269604 0.02345678 -0.00024631817
0.04137434 -0.025077514 0.014143377 0.07075614 0.0007169399 0.09973013 0.0760552 0.093752794
0.03345502 -0.02126531 0.033438493 0.068488225 -0.027521959 -0.07071618 0.003009535 -0.03687661
-0.053531535 -0.061484788 0.09135764 0.07222109 -0.053589292 0.047550134 0.06471854 0.029542167
0.090874664 -0.056638323 0.00031882373 0.03661816 0.0007398031 0.027730696 -0.002260833 -0.013555578
0.032033 0.00043727065 -0.051109683 0.091893144 0.08267894 0.05276887 -0.045786142 0.01550996
-0.074992485 0.06841253 -0.05348357 -0.0049976055 0.052572638 -0.059354816 -0.009018036 0.046561595
-0.0071704076 0.07453001 0.005672271 0.010798 -0.022388082 0.0438231 -0.044184722 -0.013696738
-0.020249372 -0.0012588134 -0.0011666236 0.0534513 0.044423524 0.0718174 0.03944875 -0.03009132
-0.028379288 -0.0044888523 -0.040975638 0.08361189 0.08096488 0.050804924 -0.039117366 -0.0683771

linear2.bias f4 [5]
00000000: 31ef 9a3d ac42 bd3d 2ccf 783d b4e6 0dbc
00000010: b53c 84bd
0.075651534 0.09241232 0.06074445 -0.008660961 -0.064568914
